…
        "outputId": "410623b6-4a16-447a-c394-47383063633f",
        "colab": {
          "base_uri": "https://localhost:8080/"
        }
      },
      "execution_count": 17,
      "outputs": [
        {
          "output_type": "stream",
          "name": "stdout",
          "text": [
            "Model: \"sequential\"\n",
            "_________________________________________________________________\n",
            " Layer (type)                Output Shape              Param #   \n",
            "=================================================================\n",
            " conv2d (Conv2D)             (None, 62, 62, 32)        11648     \n",
            "                                                                 \n",
            " batch_normalization (Batch  (None, 62, 62, 32)        128       \n",
            " Normalization)                                                  \n",
            "                                                                 \n",
            " max_pooling2d (MaxPooling2  (None, 31, 31, 32)        0         \n",
            " D)                                                              \n",
            "                                                                 \n",
            " dropout (Dropout)           (None, 31, 31, 32)        0         \n",
            "                                                                 \n",
            " conv2d_1 (Conv2D)           (None, 31, 31, 64)        51264     \n",
            "                                                                 \n",
            " batch_normalization_1 (Bat  (None, 31, 31, 64)        256       \n",
            " chNormalization)                                                \n",
            "                                                                 \n",
            " max_pooling2d_1 (MaxPoolin  (None, 15, 15, 64)        0         \n",
            " g2D)                                                            \n",
            "                                                                 \n",
            " dropout_1 (Dropout)         (None, 15, 15, 64)        0         \n",
            "                                                                 \n",
            " conv2d_2 (Conv2D)           (None, 15, 15, 128)       73856     \n",
            "                                                                 \n",
            " batch_normalization_2 (Bat  (None, 15, 15, 128)       512       \n",
            " chNormalization)                                                \n",
            "                                                                 \n",
            " max_pooling2d_2 (MaxPoolin  (None, 7, 7, 128)         0         \n",
            " g2D)                                                            \n",
            "                                                                 \n",
            " dropout_2 (Dropout)         (None, 7, 7, 128)         0         \n",
            "                                                                 \n",
            " conv2d_3 (Conv2D)           (None, 7, 7, 256)         295168    \n",
            "                                                                 \n",
            " batch_normalization_3 (Bat  (None, 7, 7, 256)         1024      \n",
            " chNormalization)                                                \n",
            "                                                                 \n",
            " max_pooling2d_3 (MaxPoolin  (None, 3, 3, 256)         0         \n",
            " g2D)                                                            \n",
            "                                                                 \n",
            " dropout_3 (Dropout)         (None, 3, 3, 256)         0         \n",
            "                                                                 \n",
            " flatten (Flatten)           (None, 2304)              0         \n",
            "                                                                 \n",
            " dense (Dense)               (None, 1024)              2360320   \n",
            "                                                                 \n",
            " dropout_4 (Dropout)         (None, 1024)              0         \n",
            "                                                                 \n",
            " dense_1 (Dense)             (None, 2)                 2050      \n",
            "                                                                 \n",
            "=================================================================\n",
            "Total params: 2796226 (10.67 MB)\n",
            "Trainable params: 2795266 (10.66 MB)\n",
            "Non-trainable params: 960 (3.75 KB)\n",
            "_________________________________________________________________\n"
…
